best_triage_model.pth (torch, 61134 bytes, 22 tensors)

fc1.weight f4 [128, 9]
-0.3204108 0.47412226 0.27109763 0.036312878 -0.23334919 0.11959736 -0.017414976 -0.0045662653
0.2345603 -0.22797674 -0.14146705 -0.19839205 0.1617792 -0.018807128 -0.56363666 -0.1118573
-0.13984835 -0.06493929 0.27195218 -0.1692946 0.14743668 -0.2671223 -0.17727384 0.29414278
0.07202489 0.010285658 -0.31405166 -0.24007784 -0.16110796 -0.039047386 0.090384215 -0.19825654
-0.7710254 -0.062950686 -0.0066547957 -0.073985174 0.06237705 -0.008942541 0.018325333 0.042580534
0.041589182 -0.44578275 0.0044717854 0.052541915 0.11800082 0.18276568 0.27826768 0.06237394
-0.15876515 -0.019448394 0.39900598 -0.040312883 -0.055530015 0.32636973 0.15694273 -0.27397713
-0.08189257 0.30574465 -0.26010236 -0.43145093 -0.16428907 -0.23864825 0.11815954 0.23258227
-0.26534954 -0.074298546 -0.10468486 0.07238387 -0.06795932 0.024224043 0.090787604 -0.34467933
0.11431965 0.09655365 -0.16439506 -0.05265575 -0.03041717 0.10708758 -0.39367813 -0.18564469
-0.368439 -0.16805202 0.013237016 -0.17693864 -0.12390715 -0.19153503 -0.6143426 -0.06356238
-0.15215774 -0.21210662 -0.13692433 -0.17817794 -0.044442393 0.11378504 -0.32504657 -0.6543997
-0.057483334 -0.17196351 -0.009527057 0.43927354 -0.22236028 0.2552195 -0.05372867 0.26234654
0.3248732 -0.056662917 -0.2230438 -0.106023945 -0.08941549 -0.07270742 -0.3241924 -0.21497586
0.27927667 0.32268694 -0.015703801 0.028877148 -0.20501278 0.22622134 -0.3075515 -0.2908166
0.025349068 0.0050321925 -0.24761118 -0.13687865 -0.1821871 -0.0050176033 -0.053339966 -0.1253346
-0.18574305 0.1878145 -0.2943695 -0.31592807 0.06505013 -0.102302946 -0.2541202 0.32881778
-0.20242336 0.0889015 0.3018397 -0.036555845 0.4423963 0.10481805 0.15996552 -0.040071633
0.14633204 0.21086904 0.1300059 -0.19774754 0.3286747 0.6923753 0.06673588 0.0744819
0.025106 -0.11986678 -0.18282808 -0.07119318 0.22552519 0.27054948 -0.067239106 -0.28779772
-0.016255254 -0.2682833 -0.36108783 0.3603759 0.15905513 0.14909582 -0.11469609 0.23888318
-0.004163143 0.12195097 0.07584832 0.2681076 -0.070658244 0.18761112 0.35204527 0.0057850094
-0.31701595 -0.02020533 0.091770165 -0.5834364 -0.069714054 0.10425192 0.011541792 0.16031174
0.08782623 0.08182837 -0.029136876 0.004534762 -0.6552792 -0.18684067 -0.3546135 0.07305362
0.073917486 -0.010568523 -0.42504904 -0.1340813 -0.14947389 -0.0038514757 -0.082560144 -0.22237745
-0.32884523 0.16808115 -0.026863748 0.13250671 0.16360934 0.2539689 -0.5736788 0.17240886
-0.44594574 -0.13875173 0.03925025 -0.16324691 0.032439824 -0.087962545 -0.041428227 0.002474021
0.3974131 0.52224636 -0.05002677 0.08771427 -0.048270807 -0.15674911 0.05614395 0.044261377
0.06169651 0.31864345 0.19063038 0.1270224 0.024795352 0.044104263 -0.33493003 -0.2877557
0.0020428253 -0.41063127 0.25035432 -0.4660578 -0.2959985 -0.13920528 0.21802993 -0.33508426
-0.1707338 0.056582253 -0.040991616 -0.2529741 0.1720648 0.17944509 0.37209356 0.26501533
-0.41353214 -0.13460787 -0.28961274 -0.18395942 0.16234972 0.08972198 0.17618077 -0.16795868
00000000: e20c a4be 27c0 f23e 4fcd 8a3e d0bc 143d
00000010: 17f3 6ebe 76ef f43d daa9 8ebc 9ca0 95bb
00000020: 9330 703e bc72 69be bddc 10be 4927 4bbe
00000030: 72a9 253e 6811 9abc 7e4a 10bf 7115 e5bd
00000040: 6834 0fbe e4fe 84bd 513d 8b3e 905b 2dbe
00000050: a4f9 163e 41c4 88be 4687 35be e299 963e
00000060: c981 933d 2d85 283c 61cb a0be f7d6 75be
00000070: 7cf9 24be 27f0 1fbd 5c1b b93d c303 4bbe
00000080: ec61 45bf 4aec 80bd 7910 dabb 8a85 97bd
00000090: 147f 7f3d bc83 12bc 021f 963c ed68 2e3d
000000a0: 6b59 2a3d a33d e4be 0e88 923b 3136 573d
000000b0: 6aaa f13d ed26 3b3e 1a79 8e3e d17b 7f3d
000000c0: 5593 22be 3d52 9fbc 834a cc3e 1f1f 25bd
000000d0: 7173 63bd ef19 a73e 98b5 203e bb46 8cbe
000000e0: 4bb7 a7bd 908a 9c3e 232c 85be 23e7 dcbe
000000f0: 653b 28be 3560 74be a1fd f13d 0c2a 6e3e
00000100: e5db 87be d629 98bd 0465 d6bd ff3d 943d
00000110: 422e 8bbd 8071 c63c daee b93d cf79 b0be
00000120: 6c20 ea3d ecbd c53d 2e57 28be 8ead 57bd
00000130: 6e2d f9bc bc50 db3d 2e90 c9be a419 3ebe
00000140: 09a4 bcbe d415 2cbe 12e0 583c 672f 35be
00000150: 08c3 fdbd c221 44be 8e45 1dbf fe2c 82bd
00000160: 3dcf 1bbe 7a32 59be e435 0cbe 4774 36be
00000170: 3a09 36bd 2208 e93d 816c a6be bd86 27bf
00000180: a573 6bbd 3417 30be 6017 1cbc 76e8 e03e
00000190: 6ab2 63be 21ac 823e 9812 5cbd 4952 863e
000001a0: c855 a63e 6017 68bd 9865 64be 1523 d9bd
000001b0: 781f b7bd a1e7 94bd 8cfc a5be a222 5cbe
000001c0: 5afd 8e3e 3937 a53e 42a5 80bc c58f ec3c
000001d0: dfee 51be 91a6 673e 6477 9dbe eae5 94be
000001e0: d9a8 cf3c 17e5 a43b c98d 7dbe eb29 0cbe
000001f0: 418f 3abe b56a a4bb 027b 5abd b757 00be
00000200: 6d33 3ebe 7252 403e 99b7 96be 53c1 a1be
00000210: 0139 853d 3584 d1bd 0b1c 82be ce5a a83e
00000220: 1248 4fbe fd11 b63d bc8a 9a3e 95bb 15bd
00000230: c581 e23e d9aa d63d 00ce 233e 2722 24bd
00000240: 11d8 153e 0eee 573e 4420 053e 557e 4abe
00000250: 0d48 a83e 823f 313f d2ac 883d f789 983d
00000260: 19ab cd3c b77c f5bd 4937 3bbe bbcd 91bd
00000270: 13f0 663e 7685 8a3e a8b4 89bd 395a 93be
00000280: bd29 85bc 6e5c 89be 81e0 b8be 3183 b83e
00000290: 59df 223e 93ac 183e c9e5 eabd cb9d 743e
000002a0: fa6a 88bb 6ec1 f93d 5d56 9b3d 6645 893e
000002b0: 45b5 90bd 211d 403e 473f b43e 2d90 bd3b
000002c0: ea4f a2be a685 a5bc fff1 bb3d 175c 15bf
000002d0: 3ec6 8ebd 0882 d53d c919 3d3c c328 243e
000002e0: 3dde b33d a295 a73d 75b0 eebc 5798 943b
000002f0: 61c0 27bf 2953 3fbe e78f b5be 239d 953d
00000300: 0d62 973d 9927 2dbc 07a0 d9be 9c4c 09be
00000310: af0f 19be 0a69 7cbb 4b15 a9bd eab6 63be
00000320: 675e a8be 771d 2c3e 5d11 dcbc d7af 073e
00000330: 3589 273e 3608 823e 9ddc 12bf f38b 303e
00000340: 0053 e4be ef14 0ebe dfc4 203d 332a 27be
00000350: 9fdf 043d b525 b4bd a5b0 29bd 2f23 223b
00000360: bb79 cb3e f0b1 053f dfe8 4cbd 8aa3 b33d
00000370: 9cb7 45bd d782 20be 33f7 653d 6b4b 353d
00000380: 7bb5 7c3d 3c25 a33e 9c34 433e 2912 023e
00000390: 9f1f cb3c aca6 343d f37b abbe b754 93be
000003a0: ece0 053b 433e d2be 712e 803e 219f eebe
000003b0: 1e8d 97be d48b 0ebe 3d43 5f3e 2a90 abbe
000003c0: d7d4 2ebe cbc2 673d d3e6 27bd d285 81be
000003d0: c131 303e 74c0 373e 0c83 be3e 17b0 873e
000003e0: 7cba d3be a5d6 09be 1f48 94be dc5f 3cbe
000003f0: 013f 263e 28c0 b73d bb68 343e 5cfd 2bbe

fc1.bias f4 [128]
9.044134e-05 -2.6054046e-05 -2.1500791e-05 -5.11773e-06 6.0539347e-05 5.6912527e-06 -2.2366814e-05 -7.2419316e-06
1.5507976e-05 8.970272e-06 1.6582184e-05 -9.717541e-06 -3.469773e-05 1.627427e-05 3.1407606e-05 7.894199e-06
-8.861675e-06 2.1068201e-05 -6.328001e-06 -2.988687e-05 4.4029035e-05 -3.0473288e-05 -1.9954014e-05 7.8967394e-05
8.338808e-06 2.401986e-05 -8.720091e-06 3.1563e-05 -6.597758e-06 1.1555361e-05 4.5487926e-05 -2.8576611e-05
5.7089008e-05 -7.8085595e-06 1.6182346e-05 2.5097239e-05 2.778699e-06 3.7429978e-05 5.368302e-05 -1.073795e-05
2.006053e-05 2.8600552e-05 8.008661e-05 3.897238e-05 1.36570325e-05 8.120945e-05 -8.759992e-06 1.5766038e-05
-6.944198e-05 -2.3619374e-05 -2.0153677e-05 7.7351706e-07 -1.2249789e-05 6.0420127e-05 1.6342157e-05 -7.302709e-05
3.777235e-05 7.494301e-05 -8.358116e-05 -2.2103479e-05 -6.7921496e-06 -6.4986143e-06 9.746125e-07 6.0598777e-05
-6.6391796e-05 -3.981965e-07 4.6254703e-05 4.495179e-05 -5.7443103e-06 8.975961e-06 2.437446e-05 2.039729e-06
2.2350507e-05 -3.160587e-06 1.6903788e-05 -3.6370446e-05 -1.3765556e-05 1.6206364e-05 5.2494456e-06 -3.66099e-05
1.31280285e-05 -2.6633297e-05 4.41779e-05 -1.8878017e-06 -4.9145434e-05 2.5343145e-06 -1.79678e-05 -0.00013505
7.615891e-05 5.23193e-05 -2.0914143e-07 1.4378089e-05 3.8980885e-05 1.2910932e-05 8.5248714e-05 2.766072e-05
3.6840484e-05 4.6787987e-05 -2.4033687e-05 2.1448208e-05 -8.745296e-06 -2.5471354e-05 -1.3579006e-05 -1.7081182e-05
9.869699e-05 -0.00011068387 3.347529e-05 -1.242041e-05 2.4905628e-05 1.0159489e-05 -1.615072e-06 -1.0812798e-05
-2.660886e-05 -1.8044254e-06 1.5857904e-05 2.9451026e-05 -1.3301543e-06 -3.0669697e-05 -1.711073e-05 7.025899e-05
-3.6476435e-05 -2.8143251e-05 -3.8485096e-06 -3.0405414e-05 5.498301e-05 5.194753e-06 2.7683884e-06 -2.975146e-06
00000000: 53ab bd38 a38e dab7 995c b4b7 f7b8 abb6
00000010: a1eb 7d38 7df7 be36 5ea0 bbb7 b8ff f2b6
00000020: 2017 8237 067f 1637 f819 8b37 8508 23b7
00000030: 6788 11b8 bb84 8837 a9bb 0338 5471 0437
00000040: 9bac 14b7 9ebb b037 1d55 d4b6 91b5 fab7
00000050: d1ab 3838 e3a0 ffb7 eb62 a7b7 4c9b a538
00000060: e8e6 0b37 427e c937 814c 12b7 8362 0438
00000070: 4f62 ddb6 e6dd 4137 4aca 3e38 ceb7 efb7
00000080: db72 6f38 8201 03b7 53bf 8737 e987 d237
00000090: af79 3a36 22fe 1c38 b429 6138 2527 34b7
000000a0: a947 a837 38eb ef37 2cf4 a738 4676 2338
000000b0: 8220 6537 fe4e aa38 e1f7 12b7 4f41 8437
000000c0: 61a1 91b8 3822 c6b7 b10f a9b7 b0a3 4f35
000000d0: 7184 4db7 9e6b 7d38 8416 8937 1f26 99b8
000000e0: c16d 1e38 b92a 9d38 4b48 afb8 dc6a b9b7
000000f0: 1fe8 e3b6 ac0e dab6 6ecf 8235 712b 7e38
00000100: d33b 8bb8 b6c7 d5b4 9c01 4238 9e8a 3c38
00000110: 40bf c0b6 7597 1637 c177 cc37 47e2 0836
00000120: 597d bb37 791a 54b6 9ccc 8d37 788c 18b8
00000130: 9df2 66b7 e7f2 8737 6524 b036 958d 19b8
00000140: 7440 5c37 926a dfb7 a94b 3938 5f60 fdb5
00000150: 8221 4eb8 3113 2a36 8fb9 96b7 359c 0db9
00000160: 81b7 9f38 6c71 5b38 5c90 60b4 6c39 7137
00000170: 687f 2338 089c 5837 8ec7 b238 f208 e837
00000180: 2b85 1a38 383e 4438 f39b c9b7 adeb b337
00000190: c3b8 12b7 51ab d5b7 63d1 63b7 8f49 8fb7
000001a0: 8bfb ce38 f31e e8b8 d267 0c38 4161 50b7
000001b0: 6eec d037 ac72 2a37 74c5 d8b5 9d68 35b7
000001c0: 1736 dfb7 962f f2b5 9706 8537 990d f737
000001d0: c187 b2b5 56a3 00b8 0389 8fb7 0258 9338
000001e0: 46fe 18b8 2c15 ecb7 7222 81b6 210f ffb7
000001f0: 8f9d 6638 974e ae36 8dc8 3936 9ea8 47b6

bn1.weight f4 [128]
0.94153804 1.1760175 0.8914014 1.1462905 0.9285351 0.8066858 1.1234341 1.1125007
1.0082396 1.0317563 1.0787222 0.82337093 0.8772674 1.0838869 1.0219812 0.8573352
0.8047349 0.98857564 0.9557873 0.9177589 1.2181051 1.0256722 0.80650926 1.0476817
0.8679185 1.0858195 0.94656724 1.1233788 0.9239887 1.0929613 1.152731 0.9919724
0.9162703 0.9109094 0.87719995 1.0109496 0.981011 1.1300042 0.938137 1.0332069
0.947991 0.82082886 0.8580887 1.1329429 0.86061174 1.1633363 0.8827195 1.1109713
0.96478075 0.7802934 0.79231393 1.0933511 0.9109707 0.96492344 0.9095939 1.1919091
0.8113047 1.160606 0.94252485 1.0194898 0.73326087 0.9641455 1.2818389 1.149933
1.1668024 0.9090869 0.88545185 1.2716774 0.8351243 1.1015424 1.146431 0.95068693
0.8300238 0.95998245 1.0402206 0.90320754 1.0644716 0.82349354 0.76112723 1.1527216
1.1934222 0.82868135 0.920699 0.9881203 1.1552088 0.84251297 1.2192259 1.2812349
0.79576325 0.8183543 1.0222884 0.87402064 0.91475874 0.9415717 0.88596416 0.8878856
1.0385119 1.1153322 0.97750103 0.9447434 0.80203396 0.8229086 0.8255019 1.0723858
0.91660446 1.0550712 0.923172 0.8565791 0.9655495 0.89242876 0.762689 0.92252535
1.1339597 1.0675262 0.86279 1.0747468 1.1262676 1.0267237 0.93710375 1.1262534
0.9647323 0.8680845 0.95115656 0.78773403 0.8616311 0.9943227 0.86712813 0.88166517
00000000: a308 713f be87 963f e232 643f a6b9 923f
00000010: 7ab4 6d3f f682 4e3f b0cc 8f3f 6c66 8e3f
00000020: ff0d 813f 9710 843f 9213 8a3f 70c8 523f
00000030: 9994 603f cebc 8a3f 48d0 823f 527a 5b3f
00000040: 1b03 4e3f 4b13 7d3f 7aae 743f 3ff2 6a3f
00000050: deea 9b3f 3a49 833f 6477 4e3f 6f1a 863f
00000060: e82f 5e3f 22fc 8a3f 3b52 723f e0ca 8f3f
00000070: 868a 6c3f 28e6 8b3f b08c 933f e7f1 7d3f
00000080: b190 6a3f 5c31 693f 2d90 603f cc66 813f
00000090: 8923 7b3f faa3 903f bf29 703f 2040 843f
000000a0: 8aaf 723f d721 523f b3ab 5b3f 4604 913f
000000b0: 0d51 5c3f 34e8 943f e8f9 613f 4f34 8e3f
000000c0: dffb 763f 4fc1 473f 16d5 4a3f eef2 8b3f
000000d0: 6035 693f 3905 773f 25db 683f 7a90 983f
000000e0: aab1 4f3f bd8e 943f 4f49 713f a47e 823f
000000f0: fcb6 3b3f 3dd2 763f 4c13 a43f 0131 933f
00000100: c859 953f ebb9 683f f9ac 623f 53c6 a23f
00000110: b5ca 553f 57ff 8c3f 40be 923f 3860 733f
00000120: 717c 543f 69c1 753f f325 853f 9c38 673f
00000130: 9b40 883f 79d0 523f 3cd9 423f 628c 933f
00000140: 0fc2 983f 7624 543f eeb2 6b3f 74f5 7c3f
00000150: e2dd 933f eeae 573f 980f 9c3f 81ff a33f
00000160: 24b7 4b3f ab7f 513f 59da 823f d1bf 5f3f
00000170: a12d 6a3f d80a 713f 8cce 623f 784c 633f
00000180: f5ed 843f 35c3 8e3f 823d 7a3f b4da 713f
00000190: 1952 4d3f 23aa 523f 1854 533f f043 893f
000001a0: 97a6 6a3f 930c 873f 0055 6c3f c548 5b3f
000001b0: 412e 773f 3676 643f 963f 433f 9f2a 6c3f
000001c0: 9725 913f b3a4 883f cedf 5c3f 4e91 893f
000001d0: 8929 903f af6b 833f 08e6 6f3f 1229 903f
000001e0: b2f8 763f c93a 5e3f ff7e 733f f0a8 493f
000001f0: db93 5c3f ef8b 7e3f 1cfc 5d3f cfb4 613f

bn1.bias f4 [128]
-0.18872184 0.25746575 -0.24841158 0.14370558 0.077810355 -0.23505324 0.049684875 0.1666216
0.022319358 0.046590213 0.14119127 -0.42471692 -0.1875145 0.1216022 0.025448874 -0.23672202
-0.6191067 0.08732736 -0.1826094 0.010125351 -0.05503945 -0.0650557 -0.0930433 0.21430975
-0.26474017 0.34242454 0.15340741 0.08798975 -0.47532836 0.109844424 0.17877474 -0.043784022
-0.5797394 -0.3725988 -0.15743327 -0.015908739 0.16520265 -0.034911606 -0.2165589 0.14460002
-0.2661111 -0.49139595 -0.2800135 -0.019145042 -0.33729672 0.24976559 -0.18314007 0.17681849
0.004735666 -0.36260447 -0.30206048 0.04659481 -0.2904349 -0.12552255 -0.3544972 0.14325824
0.04226938 -0.03038464 -0.2517891 0.0448735 -0.71729714 -0.20785508 0.24189533 0.14923908
0.14685749 -0.21465181 -0.2314093 0.29721978 -0.49773628 0.15012749 0.12885344 -0.19161709
-0.44783258 -0.24482992 -0.124249086 -0.22956493 0.07211447 -0.6339796 -0.5005359 0.054829925
0.22526489 -0.16493373 -0.27345756 -0.0889324 0.2005767 -0.3728511 0.17223027 0.14332779
-0.61368734 -0.15690412 0.07730052 -0.21435925 -0.1869 -0.3083675 -0.307753 -0.24239652
-0.02958684 0.12215852 0.08312576 -0.21216573 -0.4895505 -0.4981094 -0.071791716 -0.11176302
-0.348023 0.20129095 -0.23445347 -0.16733377 -0.33766997 -0.36440262 -0.46805912 0.027921285
0.17882764 0.023075067 -0.30124447 0.03477003 0.15262079 0.04307469 0.07426786 0.18066955
0.04507036 -0.3918769 -0.23401597 -0.31734607 -0.37548915 0.024739789 -0.3935458 -0.26298282
00000000: 4c40 41be 8dd2 833e 9b5f 7ebe 8e27 133e
00000010: 095b 9f3d ccb1 70be 5e82 4b3d da9e 2a3e
00000020: 16d7 b63c 61d5 3e3d 7294 103e 7f74 d9be
00000030: cd03 40be 930a f93d 287a d03c 4267 72be
00000040: c77d 1ebf b0d8 b23d f5fd 3abe cde4 253c
00000050: 0c71 61bd ec3b 85bd 7c8d bebd 0474 5b3e
00000060: 068c 87be 4552 af3e d516 1d3e f833 b43d
00000070: 3d5e f3be 1df6 e03d ba10 373e e056 33bd
00000080: cd69 14bf 45c5 bebe 3036 21be 0b53 82bc
00000090: e22a 293e 79ff 0ebd 9ec1 5dbe 0712 143e
000000a0: b73f 88be 4098 fbbe ee5d 8fbe 10d6 9cbc
000000b0: 28b2 acbe 8dc2 7f3e 1289 3bbe e80f 353e
000000c0: a52d 9b3b 4ba7 b9be aca7 9abe 33da 3e3d
000000d0: e2b3 94be fc88 00be a880 b5be 4ab2 123e
000000e0: a822 2d3d 35e9 f8bc 80ea 80be 46cd 373d
000000f0: c9a0 37bf f6d7 54be 69b3 773e 21d2 183e
00000100: cf61 163e afcd 5bbe 8ff6 6cbe 312d 983e
00000110: 4ad7 febe 05bb 193e 28f2 033e 4537 44be
00000120: 504a e5be b2b4 7abe 4e76 febd 1213 6bbe
00000130: c0b0 933d 7d4c 22bf 1f23 00bf 5895 603d
00000140: d7ab 663e 63e4 28be a102 8cbe 3122 b6bd
00000150: fa63 4d3e 57e6 bebe 225d 303e 85c4 123e
00000160: 9d1a 1dbf 79ab 20be bc4f 9e3d fe80 5bbe
00000170: b762 3fbe 58e2 9dbe cd91 9dbe cb36 78be
00000180: 1a60 f2bc 3f2e fa3d d73d aa3d f941 59be
00000190: 5da6 fabe 3208 ffbe 8907 93bd 03e4 e4bd
000001a0: 1230 b2be 371f 4e3e 9214 70be 8b59 2bbe
000001b0: 14e3 acbe fb92 babe 72a5 efbe 2ebb e43c
000001c0: 981e 373e ec07 bd3c b73c 9abe 056b 0e3d
000001d0: a048 1c3e 166f 303d bf19 983d 7001 393e
000001e0: b39b 383d 17a4 c8be e2a1 6fbe 2f7b a2be
000001f0: 1d40 c0be 19ab ca3c d67e c9be afa5 86be

bn1.running_mean f4 [128]
-0.021728296 0.07013692 -0.00886944 0.06897369 -0.0008330334 -0.06997475 0.064473815 0.012860992
0.032030288 0.05147786 0.07197669 -0.011233546 -0.008431215 0.03362999 0.0653049 -0.0087729525
-0.07735621 0.059357956 -0.008055658 0.05396326 0.047662895 0.06912283 0.047137335 0.03404299
-0.059985828 0.013370138 0.016151028 0.06756912 -0.07047192 0.07839507 0.05405596 0.03453667
0.014758807 -0.011819985 -0.019026643 0.015127235 -0.0022951886 0.036073532 0.011498001 0.05909819
0.00056961924 -0.04365975 -0.0031954302 0.0030370639 -0.062202476 0.031097552 -0.022898441 0.045812227
0.030179607 -0.05103032 -0.059583902 0.089652434 -0.03990278 -0.023316737 -0.014003659 0.02652731
-0.0057287132 0.044437755 -0.013810645 0.041607 -0.065165035 -0.033665076 0.03591478 0.07466587
0.019237068 0.014468038 -0.039316732 0.04054106 -0.040477302 0.07068328 0.080938645 -0.035657145
-0.013106813 -0.024544505 0.05631987 -0.026180083 0.060071718 -0.0740011 -0.08678318 0.05426541
0.028444499 -0.019411629 -0.04037923 0.04043069 -0.0052647586 -0.09489408 0.046449624 -0.007638796
-0.041183233 -0.001516108 0.020033706 -0.03008544 -0.019152679 0.008442698 -0.0062465263 -0.01590818
0.035837036 0.07238321 0.012803133 -0.03756421 -0.04784714 -0.076816544 0.04689758 0.046290554
-0.048182905 -0.009559013 -0.012157087 -0.04178928 0.0056179073 -0.05162458 -0.09197165 0.08027548
0.075779244 0.03862487 -0.01661919 0.07756223 0.048481334 0.08588143 0.044120174 0.06481698
0.023940092 -0.07116794 -0.040797107 -0.05937076 -0.024884816 0.008183893 -0.067541 -0.026526421
00000000: 8aff b1bc f2a3 8f3d 2151 11bc 1442 8d3d
00000010: ed5f 5aba ec4e 8fbd d90a 843d e9b6 523c
00000020: 3132 033d 73da 523d 8468 933d e80c 38bc
00000030: 1423 0abc 9abf 093d 93be 853d 6ebc 0fbc
00000040: ef6c 9ebd 5421 733d e1fb 03bc 9408 5d3d
00000050: 2b3a 433d 4590 8d3d 1413 413d aa70 0b3d
00000060: b3b3 75bd 6c0e 5b3c 294f 843c ae61 8a3d
00000070: 9553 90bd 988d a03d c869 5d3d 5376 0d3d
00000080: ecce 713c 9ca8 41bc c3dd 9bbc 39d8 773c
00000090: e06a 16bb d7c1 133d 1d62 3c3c f210 723d
000000a0: 8052 153a 91d4 32bd 6c6a 51bb 7a09 473b
000000b0: 06c8 7ebd 4bc0 fe3c 8395 bbbc 9aa5 3b3d
000000c0: 393b f73c 2b05 51bd 400e 74bd b29b b73d
000000d0: 1971 23bd be02 bfbc 9a6f 65bc cd4f d93c
000000e0: eeb7 bbbb 5d04 363d 0b46 62bc 1a6c 2a3d
000000f0: 3f75 85bd 64e4 09bd 601b 133d 6bea 983d
00000100: 0e97 9d3c 5a0b 6d3c 950a 21bd 620e 263d
00000110: 87cb 25bd 65c2 903d 29c3 a53d 3a0d 12bd
00000120: f5bd 56bc 8f11 c9bc aaaf 663d 9d77 d6bc
00000130: c30d 763d e48d 97bd 61bb b1bd 6845 5e3d
00000140: 7004 e93c 2305 9fbc b164 25bd a79a 253d
00000150: ff83 acbb d457 c2bd f641 3e3d de4e fabb
00000160: c0af 28bd 25b8 c6ba ba1d a43c be75 f6bc
00000170: 14e6 9cbc 3e53 0a3c a9af ccbb df51 82bc
00000180: dbc9 123d a63d 943d 3bc4 513c eedc 19bd
00000190: 5dfb 43bd fe51 9dbd ad17 403d 2a9b 3d3d
000001a0: 705b 45bd 689d 1cbc 852e 47bc 3c2b 2bbd
000001b0: 6c16 b83b 4c74 53bd a25b bcbd 7967 a43d
000001c0: 2632 9b3d 1d35 1e3d f824 88bc f2d8 9e3d
000001d0: 5d94 463d 9ae2 af3d 5bb7 343d c4be 843d
000001e0: 031e c43c 7fc0 91bd de1a 27bd c12e 73bd
000001f0: 3edb cbbc bc15 063c f052 8abd f04d d9bc

bn1.running_var f4 [128]
0.40706205 1.5872426 0.30950126 1.8514274 0.11752425 1.0791584 1.5198808 0.19631279
0.35557 1.3017138 1.8984563 0.6079957 0.2383244 0.6417066 1.274193 0.3892768
2.291701 0.5201292 0.27386355 0.77185196 0.37640303 1.0450004 0.6582009 0.39418656
0.4381523 0.33001852 0.49519375 0.82601345 2.1679218 1.7598243 0.9889325 0.73919356
0.067474574 0.30665866 0.41303146 0.75136733 0.1729453 0.6001214 0.3252951 1.2243516
0.21769176 1.0118381 0.18043676 0.32324377 0.5179814 0.5707658 0.4018561 0.9357412
0.5353129 0.9285724 1.4003139 2.111502 0.48250815 0.2609193 0.39197153 0.2853241
0.22939359 0.8220446 0.3353573 0.4367104 1.6547803 0.19557121 0.7061749 2.1669755
0.3418379 0.24728231 0.3073951 0.5935665 0.9139402 2.149071 2.0537453 0.4341975
0.5676036 0.29595363 0.7271115 0.25971448 1.1968244 2.172301 1.8038687 0.39064586
0.8281033 0.4158628 0.3066715 0.84366465 0.2341132 2.5031953 0.8797856 0.16426852
0.74627113 0.13713379 0.3615958 0.1364666 0.36572573 0.21161522 0.31167525 0.24685909
0.6606378 1.6211473 0.3185601 0.40216434 0.6701321 1.7293329 0.35905737 0.69855237
0.5233261 0.17823063 0.27178326 0.30924472 0.25176284 1.45601 1.4800217 0.9720656
1.6402068 0.81957793 0.45733374 1.594347 1.0179051 1.8089403 0.42848596 1.5517707
0.3489704 1.7201358 0.38229007 1.840774 0.5908068 0.19089098 1.7547438 0.37215632
00000000: 706a d03e c42a cb3f f376 9e3e 93fb ec3f
00000010: 8eb0 f03d dd21 8a3f 748b c23f 3806 493e
00000020: 450d b63e 8f9e a63f 9e00 f33f 9ba5 1b3f
00000030: 500b 743e e246 243f c218 a33f 4a4f c73e
00000040: 3bab 1240 3027 053f d837 8c3e 1798 453f
00000050: e6b7 c03e 93c2 853f db7f 283f d2d2 c93e
00000060: 8055 e03e 30f8 a83e 098a fd3e 9e75 533f
00000070: 3bbf 0a40 ec41 e13f ae2a 7d3f ca3b 3d3f
00000080: 1c30 8a3d 5d02 9d3e dc78 d33e 9c59 403f
00000090: 9318 313e 8ea1 193f 148d a63e 8eb7 9c3f
000000a0: 97ea 5e3e e983 813f 6ac4 383e 3580 a53e
000000b0: 6e9a 043f b51d 123f 15c0 cd3e bc8c 6f3f
000000c0: 440a 093f ecb6 6d3f 7c3d b33f d922 0740
000000d0: 4f0b f73e 3797 853e 7eb0 c83e 0016 923e
000000e0: 27e6 6a3e 8471 523f f4b3 ab3e 8198 df3e
000000f0: d7cf d33f d243 483e e1c7 343f baaf 0a40
00000100: 6105 af3e 9337 7d3e e462 9d3e f9f3 173f
00000110: fcf7 693f 618a 0940 9070 0340 224f de3e
00000120: 784e 113f 3c87 973e fb23 3a3f 4cf9 843e
00000130: 8b31 993f fb06 0b40 2be5 e63f bc02 c83e
00000140: 94fe 533f f8eb d43e 0c04 9d3e 68fa 573f
00000150: 5fbb 6f3e 5a34 2040 a139 613f 0236 283e
00000160: a00b 3f3f cd6c 0c3e 1623 b93e e6bd 0b3e
00000170: 6740 bb3e a9b1 583e e693 9f3e a1c8 7c3e
00000180: 8f1f 293f c181 cf3f 4f1a a33e 7ce8 cd3e
00000190: c78d 2b3f c85a dd3f 5ed6 b73e 54d4 323f
000001a0: b3f8 053f 1782 363e 2d27 8b3e 5355 9e3e
000001b0: 0fe7 803e 895e ba3f 5a71 bd3f 4bd9 783f
000001c0: 4cf2 d13f dccf 513f a627 ea3e 9013 cc3f
000001d0: b74a 823f 5b8b e73f 8362 db3e 6ca0 c63f
000001e0: 40ac b23e 692d dc3f 86bb c33e 7c9e eb3f
000001f0: 1d3f 173f ed78 433e 729b e03f 468b be3e

fc2.weight f4 [64, 128]
0.12188212 -0.00908495 0.04404409 0.026962496 -0.026843132 0.15581785 0.040464047 0.014547418
0.07788537 -0.0013168107 0.12204138 -0.1491995 0.026599443 0.10476372 0.079113096 -0.14046855
-0.2558353 0.03789316 0.0588996 0.04525192 -2.114423e-05 0.07420749 0.005502921 0.010949197
0.1017105 0.010772532 0.058400087 -0.025303472 -0.18390389 -0.00031157897 0.04543504 0.04677911
-0.3163001 -0.19948417 -0.16774017 0.08616959 0.08420904 0.056390163 -0.015093252 0.0844183
-0.012667706 -0.2517243 -0.0832422 0.060721185 0.051307503 0.061289653 -0.12790413 0.08404346
0.118312426 -0.070896566 -0.14768277 0.062477205 0.0036928726 -0.033165403 -0.06428354 0.068320505
-0.0155610945 0.09288528 0.029513093 0.018322704 -0.21848951 0.13770175 -0.053918976 0.016112562
0.11179354 -0.007720928 -0.10867832 0.03484774 -0.07790927 -0.041600198 0.04821447 -0.11733781
-0.0651323 -0.083875015 0.2155109 -0.042496767 0.063677534 -0.23929237 -0.06470186 0.0142501285
0.03392086 -0.020465443 -0.23766246 0.10422913 0.043188162 -0.1382222 0.14416614 0.03930136
-0.2160693 -0.032111008 0.13523199 -0.011911841 -0.21144603 -0.048969667 -0.18765952 -0.042600676
0.074884385 0.024415616 0.058792632 -0.04184914 -0.25725883 -0.20244765 -0.029433906 0.03828824
-0.19719736 0.079690635 0.10026492 0.046269674 -0.1297255 -0.1600746 -0.05992327 0.12300148
-0.04384937 0.0974855 -0.07672998 0.05963053 0.06508088 0.09915101 0.11220124 -0.028367331
0.10860242 -0.17981869 -0.127532 -0.25169396 -0.12932925 -0.027732817 -0.24611704 0.10205912
-0.059589688 0.0021347634 -0.08380379 0.2253596 -0.1275655 -0.06346799 0.0039003452 0.07161785
-0.035893045 0.075536765 0.1346003 -0.17750956 -0.12903298 -0.082890496 0.10114493 -0.132815
-0.17614791 -0.046136692 0.0070658703 0.01088128 -0.12008581 0.107139766 -0.049815983 -0.0017606955
0.0705286 -0.07319733 0.05969576 -0.0057268734 -0.1502216 0.14564487 0.030982321 0.06554488
-0.38443843 -0.20837963 0.037527964 0.12442463 0.0010447612 0.07966925 0.014644288 0.0032383648
-0.017774926 -0.10425596 -0.06843227 -0.07755246 0.04800447 0.05933621 -0.2511005 0.07689063
-0.0008502428 -0.18118785 -0.22813576 0.1272223 -0.08648566 -0.09128557 0.019511947 -0.096147895
-0.004815541 0.064232856 0.0165531 0.11092446 -0.16759641 0.009897574 0.059459712 0.057316843
-0.1643546 -0.0488672 -0.02378418 -0.038602892 -0.13312748 0.14664844 0.13449879 -0.14347377
-0.084203586 -0.07140718 0.01526505 0.046147127 -0.010450597 -0.081856474 -0.11164419 0.034629952
-0.030165546 -0.07690235 -0.10014459 0.2554642 0.048082765 -0.032634955 0.029322768 -0.061719913
-0.039872974 -0.107524365 0.03213586 -0.094260454 -0.09406675 -0.108224966 -0.08212275 -0.014379318
0.1258022 0.0025089802 -0.0016899989 0.045005545 -0.10648777 0.0002547804 0.057458576 0.08425805
-0.11078975 0.04879527 -0.041674364 0.0010396548 -0.1463606 -0.15097462 0.0068190764 -0.044484496
0.022525562 0.10801563 -0.040466107 0.10480456 0.14318906 0.04369829 0.04106935 0.05484939
-0.004501796 -0.09492142 -0.08124301 -0.04171784 -0.09117475 -0.0059705796 -0.19218352 -0.24422856
00000000: 559d f93d 0bd9 14bc 9367 343d 74e0 dc3c
00000010: 21e6 dbbc b78e 1f3e a1bd 253d 4b58 6e3c
00000020: 5d82 9f3d d698 acba d5f0 f93d c1c7 18be
00000030: 13e7 d93c 5c8e d63d 0c06 a23d fdd6 0fbe
00000040: d8fc 82be dc35 1b3d b540 713d 145a 393d
00000050: e35e b1b7 19fa 973d d951 b43b 4364 333c
00000060: 984d d03d 467f 303c ee34 6f3d 3a49 cfbc
00000070: 4d51 3cbe 6c5b a3b9 181a 3a3d 749b 3f3d
00000080: 16f2 a1be 9445 4cbe 14c4 2bbe af79 b03d
00000090: ca75 ac3d 5ff9 663d b049 77bc 80e3 ac3d
000000a0: 368c 4fbc 02e2 80be e37a aabd c7b6 783d
000000b0: d127 523d dc0a 7b3d 4df9 02be fa1e ac3d
000000c0: c94d f23d 3832 91bd 273a 17be 19e8 7f3d
000000d0: 1f04 723b 72d8 07bd 17a7 83bd 9feb 8b3d
000000e0: f6f3 7ebc a33a be3d 71c5 f13c 7f19 963c
000000f0: b7bb 5fbe b001 0d3e 25da 5cbd 7efe 833c
00000100: 03f4 e43d d7ff fcbb bd92 debd 81bc 0e3d
00000110: e58e 9fbd f864 2abd 897c 453d ce4e f0bd
00000120: 1564 85bd aac6 abbd e4ae 5c3e 1711 2ebd
00000130: 5e69 823d 0f09 75be 6982 84bd 5f79 693c
00000140: 9af0 0a3d 25a7 a7bc ca5d 73be 1576 d53d
00000150: 12e6 303d 1f8a 0dbe 4aa0 133e 76fa 203d
00000160: 4541 5dbe d586 03bd 417a 0a3e e229 43bc
00000170: 4f85 58be 6b94 48bd d129 40be 0c7e 2ebd
00000180: fc5c 993d 4203 c83c 8bd0 703d 016a 2bbd
00000190: 6eb7 83be 704e 4fbe 601f f1bc 21d4 1c3d
000001a0: 1bee 49be d834 a33d b257 cd3d 4585 3d3d
000001b0: c3d6 04be 99ea 23be 1a72 75bd 33e8 fb3d
000001c0: 669b 33bd 7aa6 c73d 9c24 9dbd 253f 743d
000001d0: 2049 853d af0f cb3d c4c9 e53d 9b62 e8bc
000001e0: f26a de3d 6422 38be c097 02be 08de 80be
000001f0: e36e 04be ef2f e3bc 1b06 7cbe 5f04 d13d
00000200: 5114 74bd 63e7 0b3b 52a1 abbd abc4 663e
00000210: 88a0 02be 81fb 81bd ef9c 7f3b 61ac 923d
00000220: 9604 13bd 05b3 9a3d a9d4 093e 11c5 35be
00000230: 3921 04be 7ec2 a9bd 1325 cf3d a800 08be
00000240: 1e60 34be d4f9 3cbd d188 e73b 6547 323c
00000250: 8def f5bd 186c db3d d80b 4cbd 23c7 e6ba
00000260: 4c71 903d 7be8 95bd 8b83 743d 7fa8 bbbb
00000270: b1d3 19be ee23 153e a3ce fd3c 653c 863d
00000280: 1dd5 c4be 7861 55be ecb6 193d 57d2 fe3d
00000290: 5ef0 883a a229 a33d 99ee 6f3c bf3a 543b
000002a0: b99c 91bc 2684 d5bd 3826 8cbd d3d3 9ebd
000002b0: 56a0 443d 870a 733d 3f90 80be d678 9d3d
000002c0: d4e2 5eba 4f89 39be 6c9c 69be 9046 023e
000002d0: 651f b1bd eef3 babd 85d7 9f3c 30e9 c4bd
000002e0: b0cb 9dbb 848c 833d 5e9a 873c 5d2c e33d
000002f0: 659e 2bbe 6f29 223c 078c 733d 11c5 6a3d
00000300: 924c 28be f928 48bd 0ad7 c2bc 111e 1ebd
00000310: 9252 08be 022b 163e 0dba 093e caea 12be
00000320: ee72 acbd ed3d 92bd 431a 7a3c c504 3d3d
00000330: fb38 2bbc 5ea4 a7bd b6a5 e4bd 23d8 0d3d
00000340: bc1d f7bc fb7e 9dbd 9b18 cdbd 34cc 823e
00000350: 6ff2 443d 3bac 05bd 4d36 f03c 05ce 7cbd
00000360: d851 23bd bc35 dcbd e4a0 033d a00b c1bd
00000370: 11a6 c0bd 0da5 ddbd f92f a8bd 3b97 6bbc
00000380: 4bd2 003e b46d 243b f482 ddba bc57 383d
00000390: 4316 dabd 0c94 8539 af59 6b3d 7c8f ac3d
000003a0: bde5 e2bd 8ddd 473d bdb2 2abd 0745 883a
000003b0: 8edf 15be 1799 1abe 8f72 df3b 6035 36bd
000003c0: 8787 b83c 4c37 dd3d cabf 25bd c6a3 d63d
000003d0: 27a0 123e fafc 323d 5638 283d c1a9 603d
000003e0: cd83 93bb 2966 c2bd bc62 a6bd 53e0 2abd
000003f0: d4b9 babd daa4 c3bb c2cb 44be 0d17 7abe

fc2.bias f4 [64]
6.1856513e-06 -7.6174133e-06 -3.9973944e-05 -1.4348256e-05 -4.9881477e-05 -2.8421517e-05 8.9936924e-07 -3.4097473e-06
-9.198713e-06 7.373282e-06 -3.3183132e-05 1.0595034e-05 1.1759058e-08 1.2514775e-05 -6.769373e-06 -1.0125535e-06
-8.596285e-06 1.3244385e-05 2.2331644e-06 -2.8419936e-05 -2.3170058e-05 1.3110329e-05 -4.3987613e-05 -1.9306935e-05
4.019023e-06 5.321247e-06 2.9981731e-05 2.3962359e-05 2.323871e-06 6.4356504e-06 3.5978228e-05 4.4151926e-07
1.0137811e-05 1.1625501e-05 -4.5995635e-06 4.8418704e-05 1.7050027e-06 -4.9026943e-07 2.8224254e-05 1.6392949e-05
2.1763555e-05 4.7989175e-05 2.3958373e-06 1.1520718e-05 6.7684728e-06 8.187055e-06 4.7712524e-07 4.2581205e-06
7.638803e-05 -3.1259442e-05 1.4563505e-05 3.5298538e-06 -3.3979326e-05 -2.5398262e-05 6.1192177e-06 -2.6750406e-05
-2.0666574e-05 2.9062869e-05 6.3541765e-06 2.1005446e-05 -5.1248867e-06 2.2668614e-06 1.03899165e-05 1.32327195e-05
00000000: 578e cf36 1599 ffb6 b2a9 27b8 4ab9 70b7
00000010: d437 51b8 be6a eeb7 2f6c 7135 03d3 64b6
00000020: 2c54 1ab7 0368 f736 1e2e 0bb8 53c1 3137
00000030: e204 4a32 8df6 5137 7924 e3b6 13e7 87b5
00000040: c338 10b7 3334 5e37 79dd 1536 5967 eeb7
00000050: 525d c2b7 6ff4 5b37 577f 38b8 54f5 a1b7
00000060: 25db 8636 2a8d b236 4781 fb37 c602 c937
00000070: cdf3 1b36 d1f1 d736 54e7 1638 f209 ed34
00000080: 9115 2a37 260b 4337 f355 9ab6 3015 4b38
00000090: 72d7 e435 0f9b 03b5 20c3 ec37 9783 8937
000000a0: e190 b637 fc47 4938 2cc8 2036 1b49 4137
000000b0: bd1c e336 225b 0937 cc13 0035 fae0 8e36
000000c0: 8332 a038 921c 03b8 c755 7437 6de2 6c36
000000d0: 0685 0eb8 5a0e d5b7 ae53 cd36 0f66 e0b7
000000e0: 215d adb7 09cc f337 f635 d536 da34 b037
000000f0: 71f6 abb6 6220 1836 5a50 2e37 1902 5e37

bn2.weight f4 [64]
1.0254049 0.9732789 0.82914394 0.9638672 0.88068193 0.9649408 0.9496077 1.1340629
1.0800431 0.9577004 1.1221485 0.95075446 0.83681756 1.0116551 1.0375699 0.96183026
0.9894453 0.95376664 1.0640196 0.8898715 0.9799899 0.952795 1.08114 0.81949556
0.96599823 0.9416838 1.0343689 0.92885876 1.0395136 0.85561574 1.0338697 0.8578445
1.0182223 1.0152221 0.9411677 0.94119585 0.9962101 0.9198066 1.0632483 0.8982101
0.9667787 0.8910233 0.98090345 0.9665332 0.9391664 0.871779 0.86069816 0.87688506
0.85350055 1.0759856 0.9886731 0.923483 1.0576723 0.8293098 1.0086266 0.9716057
0.90659577 1.1617393 0.99636716 1.0287833 1.0832956 0.860831 0.98472506 0.9516165
00000000: 7840 833f ce28 793f c742 543f 00c0 763f
00000010: 5f74 613f 5c06 773f 7d19 733f f928 913f
00000020: da3e 8a3f da2b 753f 90a2 8f3f a564 733f
00000030: ad39 563f ea7d 813f 17cf 843f 823a 763f
00000040: 4a4c 7d3f 0d2a 743f cb31 883f 9ece 633f
00000050: 9ee0 7a3f 60ea 733f cc62 8a3f 76ca 513f
00000060: a94b 773f 3112 713f 3366 843f b0c9 6d3f
00000070: c80e 853f a209 5b3f d855 843f b29b 5b3f
00000080: 1c55 823f ccf2 813f 5ef0 703f 36f2 703f
00000090: a007 7f3f 7278 6b3f 8518 883f 19f1 653f
000000a0: cf7e 773f 1a1a 643f 7d1c 7b3f b86e 773f
000000b0: 366d 703f e92c 5f3f b756 5c3f 8a7b 603f
000000c0: 037f 5a3f e5b9 893f ae19 7d3f 6269 6c3f
000000d0: ce61 873f a64d 543f ad1a 813f 27bb 783f
000000e0: a916 683f e0b3 943f eb11 7f3f 2caf 833f
000000f0: 6ea9 8a3f 6c5f 5c3f f116 7c3f 249d 733f

bn2.bias f4 [64]
-0.117565356 0.06861209 -0.20792669 -0.22734186 -0.30996758 -0.14247465 -0.21913926 -0.22369447
0.09661856 -0.024639552 0.038247403 -0.12234995 -0.48991096 0.0022147372 -0.32582426 -0.0971724
-0.23761864 -0.21329585 -0.25569844 -0.2468489 -0.24189016 -0.04442345 -0.25632975 -0.35879478
-0.052055396 -0.23783788 -0.24426596 -0.09177728 -0.28729603 -0.42538765 0.049734145 -0.327536
-0.20725113 -0.024658142 -0.10322595 -0.22621784 0.02872906 -0.41088864 -0.030249909 -0.2707139
0.029237919 -0.2115612 -0.22655435 0.07110513 -0.06980353 -0.33699727 -0.29255208 -0.41001192
-0.25727075 -0.33558908 0.08761137 -0.06466473 -0.28888685 -0.41105983 -0.15944713 -0.120397165
-0.2968815 -0.25966126 -0.09568186 -0.30570844 0.067079976 -0.38829508 -0.28695938 -0.11032359
00000000: 1bc6 f0bd 7f84 8c3d bcea 54be 4ecc 68be
00000010: 12b4 9ebe e0e4 11be 0b66 60be 2a10 65be
00000020: f4df c53d e3d8 c9bc 4fa9 1c3d 9c92 fabd
00000030: 9cd5 fabe 2025 113b 70d2 a6be 5302 c7bd
00000040: 4d52 73be 3a6a 5abe e8ea 82be f5c5 7cbe
00000050: 0eb2 77be 5df5 35bd a73d 83be f3b3 b7be
00000060: 0a38 55bd c68b 73be db20 7abe baf5 bbbd
00000070: 7718 93be 69cc d9be 08b6 4b3d ccb2 a7be
00000080: a439 54be dfff c9bc 2068 d3bd a6a5 67be
00000090: 3559 eb3c ff5f d2be a8ce f7bc 039b 8abe
000000a0: 5c84 ef3c 80a3 58be ddfd 67be 919f 913d
000000b0: 27f5 8ebd e88a acbe 63c9 95be 15ed d1be
000000c0: feb8 83be 55d2 abbe 976d b33d f16e 84bd
000000d0: fae8 93be 6f76 d2be 1c46 23be ca92 f6bd
000000e0: da00 98be 52f2 84be daf4 c3bd d185 9cbe
000000f0: 3a61 893d 9dce c6be 57ec 92be 56f1 e1bd

bn2.running_mean f4 [64]
0.40314332 -0.10835677 0.36140344 0.76216716 -0.5800041 -2.2884932 0.6382231 1.0266043
-0.9779988 -0.101601414 -0.66259295 0.33162728 -2.7204325 0.22752243 -2.2988844 -0.12386892
-0.93594265 -3.9999294 2.38061 -0.5924474 -0.53231925 -0.33505303 1.115004 -1.4456743
0.051601626 -0.08735763 0.8477075 0.3393597 0.80530804 -3.3268192 -1.0295964 -4.5116167
0.06870407 0.7848424 -0.37403235 -0.4891745 0.0957013 1.7032104 0.39601833 -3.4212365
-1.1287254 -0.8060062 -2.2767854 -0.41100386 -0.6622919 -1.1112369 -1.194952 -0.81432974
-0.43407342 1.5164887 -0.75764763 -0.859573 0.81945866 -3.8253133 0.8411161 -3.2918546
-0.2735252 1.1614702 -0.027312802 0.65200174 -0.9197742 0.28660086 -3.8320003 -0.45952338
00000000: cd68 ce3e 27ea ddbd df09 b93e 631d 433f
00000010: 267b 14bf ac76 12c0 9762 233f c567 833f
00000020: 215e 7abf 6714 d0bd b19f 29bf 0dcb a93e
00000030: 911b 2ec0 a4fb 683e ec20 13c0 fdae fdbd
00000040: f099 6fbf d8fe 7fc0 ea5b 1840 a2aa 17bf
00000050: 1346 08bf 128c abbe 73b8 8e3f db0b b9bf
00000060: 3a5c 533d 8fe8 b2bd 5c03 593f 8ec0 ad3e
00000070: ab28 4e3f 9bea 54c0 d1c9 83bf 2a5f 90c0
00000080: b8b4 8c3d 6eeb 483f 2b81 bfbe 1475 fabe
00000090: 0bff c33d cc02 da3f eac2 ca3e 8af5 5ac0
000000a0: 137a 90bf 6c56 4ebf dab6 11c0 196f d2be
000000b0: f68b 29bf 033d 8ebf 30f4 98bf ea77 50bf
000000c0: df3e debe 4d1c c23f 32f5 41bf fa0c 5cbf
000000d0: 0bc8 513f efd1 74c0 6253 573f bfad 52c0
000000e0: 7f0b 8cbe 0eab 943f 19bf dfbc 96e9 263f
000000f0: 5276 6bbf 59bd 923e 7e3f 75c0 a646 ebbe

bn2.running_var f4 [64]
7.917708 6.23596 1.7915577 7.6223264 3.295265 2.2732382 5.9427624 1.6958864
4.6424623 3.5154634 2.0584743 2.1206546 7.8347898 7.7236404 2.6618872 5.8777256
5.682364 6.4447036 2.662802 3.9041955 2.5820909 6.8456855 1.9408367 6.8404083
5.6033316 2.4292772 1.8698463 5.365179 1.9572564 11.9209385 4.3771944 10.461054
2.398921 5.948938 7.474521 2.264694 8.44502 1.4636432 6.8428035 5.0594273
3.5093882 2.3224065 2.6369846 6.4908085 7.9159 4.088888 5.8172364 3.9459848
1.8601286 1.7811798 4.7309523 5.7298713 1.9965154 9.986973 6.130896 4.3918114
1.4497745 1.6664062 6.890566 2.6990721 6.08649 1.4000528 8.280584 6.6560674
00000000: dd5d fd40 fc8c c740 c351 e53f 19ea f340
00000010: 9fe5 5240 bc7c 1140 1c2b be40 ce12 d93f
00000020: 0d8f 9440 5afd 6040 0bbe 0340 ceb8 0740
00000030: 99b6 fa40 1028 f740 5c5c 2a40 5416 bc40
00000040: edd5 b540 033b ce40 596b 2a40 57de 7940
00000050: fa40 2540 db0f db40 566d f83f a0e4 da40
00000060: 7e4e b340 4779 1b40 2057 ef3f 8caf ab40
00000070: 6187 fa3f 2abc 3e41 fa11 8c40 7a60 2741
00000080: ec87 1940 b35d be40 472f ef40 bff0 1040
00000090: cd1e 0741 a958 bb3f 3ff8 da40 d4e6 a140
000000a0: d199 6040 4fa2 1440 5bc4 2840 b4b4 cf40
000000b0: 0e4f fd40 2cd8 8240 cd26 ba40 048b 7c40
000000c0: b218 ee3f b3fd e33f f663 9740 1b5b b740
000000d0: d18d ff3f a4ca 1f41 4d30 c440 b889 8c40
000000e0: 3692 b93f cc4c d53f 847f dc40 99bd 2c40
000000f0: 87c4 c240 ee34 b33f 467d 0441 81fe d440

fc3.weight f4 [32, 64]
-0.09855425 0.021751702 0.03813192 0.003225979 -0.02890517 -0.21391943 -0.052898344 0.10511763
0.12399173 -0.058332086 0.19810963 0.11233538 -0.0010495967 0.0696044 -0.20269063 -0.033701904
-0.070339926 -0.14310929 0.22099207 0.057302143 0.03994682 0.14485426 0.21497166 -0.018609196
-0.023986168 0.006104726 0.17964984 -0.12035422 0.15918005 -0.056408588 0.11574676 -0.10281021
-0.044911664 0.15185829 -0.012278806 0.17314331 0.06654652 0.089105316 -0.019381166 -0.19298853
0.12382728 -0.034397 -0.25208348 0.04969088 0.10394557 0.029995129 -0.061519735 0.060762312
0.057718366 0.14361103 0.18554956 0.15247168 0.19880407 -0.18273544 0.13404429 -0.08619472
-0.031159338 0.20882067 0.15440601 0.19914854 0.14899813 0.16151313 -0.16737656 -0.08105481
-0.16129825 -0.080607876 -0.03008865 0.03913663 -0.006765793 0.12104628 0.055933595 -0.15914051
-0.10739298 -0.06352075 -0.09114919 -0.026828777 0.13891293 -0.14313567 0.22550464 -0.11482746
0.13663658 0.12613639 -0.05589537 -0.14814721 -0.017309437 -0.113915734 -0.0872472 0.112682015
-0.025544152 0.02328858 -0.19836831 -0.11914161 -0.12974828 0.07731933 -0.09502506 0.14654161
-0.16318622 -0.117678955 -0.08183047 -0.11878935 -0.18111509 -0.08850116 0.040045004 0.06477571
0.01895457 -0.11017076 0.12836313 -0.20710418 -0.008248513 0.06519822 0.024404308 0.036964376
-0.08103724 -0.11929976 -0.0884433 0.02187693 -0.15679452 0.16599877 -0.06481587 0.116012745
-0.058208216 -0.1684762 -0.16827059 -0.15807709 -0.03355461 -0.10634826 0.18337439 -0.064547025
0.010939464 -0.0742218 -0.024552254 0.027370794 -0.093396015 -0.16880883 -0.059218314 0.27041122
0.042684965 -0.09346637 0.23615906 0.07362303 0.09307444 0.11227805 -0.24351992 -0.052869204
0.09561174 -0.17997082 0.21671504 0.1126578 0.13701981 -0.060491282 0.21304053 -0.017361574
0.08151392 0.095940255 0.12709227 -0.16232218 0.1050552 0.12536652 0.11817491 -0.041053414
0.13605282 -0.03551153 0.06091639 0.14118029 -0.06578474 0.057119563 0.0510714 -0.098161645
0.09250789 0.13858059 -0.16520059 -0.051280964 0.03352159 -0.10800422 -0.05059194 -0.010252922
-0.024376055 0.25838456 0.034387633 -0.0738552 0.16995034 0.08407859 0.040327895 -0.11582077
-0.07013833 0.22826993 0.044728614 0.14705732 -0.050766554 0.05075931 -0.028150469 0.12619519
-0.16611183 0.16011953 0.063605905 -0.10069927 0.034367833 0.01672892 -0.16888307 -0.24361554
-0.09184855 -0.04594521 -0.25223067 0.15813768 -0.026098093 -0.0012156996 0.029791217 -0.02896001
-0.31200525 -0.020651132 0.08105051 0.050874133 0.08363989 -0.004301513 -0.010943325 0.00973029
0.12076121 0.20651308 -0.064071976 0.040591493 -0.018934708 0.022927612 -0.13668892 0.082586095
0.074763425 0.08933032 -0.10118335 0.13571094 0.11445565 0.21232493 0.08050761 -0.009016996
-0.07284412 0.117745854 0.061797824 0.059118297 -0.027042123 -0.026779622 0.028559582 0.06280234
0.14075945 0.07398353 -0.31114957 -0.0048911967 -0.25517076 -0.0019391057 0.09890958 0.050694585
0.11008235 -0.1790302 -0.06530849 0.025745485 -0.10395511 0.17382173 -0.019003624 0.018991856
00000000: d0d6 c9bd a030 b23c 3730 1c3d f26a 533b
00000010: 89ca ecbc b20d 5bbe efab 58bd e947 d73d
00000020: 60ef fd3d a0ed 6ebd 40dd 4a3e 1710 e63d
00000030: 9f92 89ba c08c 8e3d 228e 4fbe 020b 0abd
00000040: 610e 90bd 3e8b 12be bf4b 623e a7b5 6a3d
00000050: 479f 233d ad54 143e 8821 5c3e 5072 98bc
00000060: a47e c4bc 270a c83b 21f6 373e 467c f6bd
00000070: 1800 233e b10c 67bd a30c ed3d 298e d2bd
00000080: 4bf5 37bd bd80 1b3e 0c2d 49bc 7b4c 313e
00000090: 8b49 883d d97c b63d 40c5 9ebc c99e 45be
000000a0: 2899 fd3d dee3 0cbd 1611 81be aa88 4b3d
000000b0: 6ae1 d43d 58b8 f53c 1efc 7bbd e7e1 783d
000000c0: 186a 6c3d c50e 133e b400 3e3e 8921 1c3e
000000d0: 4b93 4b3e 001f 3bbe e842 093e db86 b0bd
000000e0: de41 ffbc 16d5 553e 9c1c 1e3e 98ed 4b3e
000000f0: f792 183e b363 253e c364 2bbe 1000 a6bd
00000100: 5e2b 25be be15 a5bd 797c f6bc bb4d 203d
00000110: 96b3 ddbb 1de7 f73d a01a 653d bbf5 22be
00000120: daf0 dbbd 2b17 82bd 6dac babd 06c8 dbbc
00000130: 313f 0e3e 2892 12be b0ea 663e a92a ebbd
00000140: 76ea 0b3e e629 013e 8bf2 64bd e7b3 17be
00000150: 85cc 8dbc a74c e9bd a9ae b2bd d4c5 e63d
00000160: f841 d1bc b1c7 be3c 1021 4bbe 8400 f4bd
00000170: bcdc 04be 9959 9e3d 809c c2bd 010f 163e
00000180: 4a1a 27be aa01 f1bd bc96 a7bd d547 f3bd
00000190: 3c76 39be 1940 b5bd 3b06 243d 21a9 843d
000001a0: 9d46 9b3c 35a1 e1bd a071 033e 1e13 54be
000001b0: c524 07bc a586 853d 8beb c73c f567 173d
000001c0: daf6 a5bd 6f53 f4bd c321 b5bd 3f37 b33c
000001d0: be8e 20be 95fb 293e 2fbe 84bd 1798 ed3d
000001e0: bd6b 6ebd 0685 2cbe 204f 2cbe f6de 21be
000001f0: 8f70 09bd 1ecd d9bd 7fc6 3b3e 3b31 84bd
00000200: 703b 333c 9901 98bd cf21 c9bc b738 e03c
00000210: 6946 bfbd 39dc 2cbe e78e 72bd 5773 8a3e
00000220: 6ed6 2e3d 4c6b bfbd aed3 713e acc7 963d
00000230: d09d be3d 09f2 e53d 495d 79be 618d 58bd
00000240: 17d0 c33d 454a 38be 8cea 5d3e 22b9 e63d
00000250: ec4e 0c3e b5c5 77bd 4c27 5a3e dc39 8ebc
00000260: c5f0 a63d 537c c43d 7a24 023e c937 26be
00000270: 2e27 d73d 1560 003e b005 f23d a027 28bd
00000280: 6e51 0b3e 8a74 11bd 7783 793d 9191 103e
00000290: 26ba 86bd 34f6 693d 3f30 513d f908 c9bd
000002a0: c774 bd3d 12e8 0d3e 582a 29be fd0b 52bd
000002b0: ef4d 093d 5131 ddbd 7e39 4fbd dffb 27bc
000002c0: 4bb0 c7bc fb4a 843e 0cda 0c3d 6541 97bd
000002d0: 7607 2e3e 6531 ac3d dd2e 253d 7133 edbd
000002e0: afa4 8fbd 98bf 693e 5a35 373d 3296 163e
000002f0: 97f0 4fbd ffe8 4f3d d09b e6bc 5039 013e
00000300: 3819 2abe 60f6 233e d043 823d 6b3b cebd
00000310: 49c5 0c3d 170b 893c afef 2cbe 5a76 79be
00000320: 181b bcbd 0b31 3cbd 6124 81be d8ee 213e
00000330: abcb d5bc 1c58 9fba b60c f43c 8b3d edbc
00000340: 27bf 9fbe 902c a9bc cffd a53d 6561 503d
00000350: 644b ab3d b5f3 8cbb a24b 33bc cb6b 1f3c
00000360: a751 f73d 2a78 533e 2b38 83bd 4443 263d
00000370: f61c 9bbc b0d2 bb3c 2ef8 0bbe e622 a93d
00000380: 911d 993d d1f2 b63d 3739 cfbd cff7 0a3e
00000390: b967 ea3d b56b 593e 2de1 a43d 06bc 13bc
000003a0: 4c2f 95bd bd24 f13d b71f 7d3d 0726 723d
000003b0: 7187 ddbc f060 dbbc c9f5 e93c 839e 803d
000003c0: 3f23 103e ad84 973d ff4e 9fbe 5546 a0bb
000003d0: bea5 82be 9729 feba 1b91 ca3d 20a5 4f3d
000003e0: db72 e13d b153 37be 75c0 85bd 32e8 d23c
000003f0: 6be6 d4bd 53fe 313e 7dad 9bbc cf94 9b3c

fc3.bias f4 [32]
5.2708932e-05 3.6686815e-05 -2.1136524e-05 -1.0463361e-05 3.1983185e-05 4.5793626e-05 1.7623008e-05 -1.3144135e-05
2.1814041e-05 -3.5296267e-05 -8.9448195e-06 -4.7548965e-05 6.222393e-06 -5.517027e-07 -7.9086085e-06 -4.853566e-05
2.4991363e-05 -1.02967115e-05 -0.00016086466 3.0825075e-05 -4.0001447e-05 1.0474823e-05 1.7248132e-05 5.1731677e-06
-3.6849415e-05 8.060307e-06 -1.28125985e-05 -4.914536e-05 2.6628224e-05 -1.3151181e-05 2.5848414e-05 4.5548218e-06
00000000: c913 5d38 2be0 1938 574e b1b7 cb8b 2fb7
00000010: af25 0638 8812 4038 1fd5 9337 a185 5cb7
00000020: 4cfd b637 140b 14b8 b511 16b7 506f 47b8
00000030: f3c9 d036 b918 14b5 37af 04b7 c592 4bb8
00000040: 8ba4 d137 0ac0 2cb7 c7ad 28b9 2c4a 0138
00000050: 3ac7 27b8 06bd 2f37 15b0 9037 2c95 ad36
00000060: c28e 1ab8 c13a 0737 b1f5 56b7 6e21 4eb8
00000070: ad5f df37 e4a3 5cb7 0cd5 d837 9fd5 9836

bn3.weight f4 [32]
1.2263837 1.0385858 1.1524073 0.9880572 1.3628639 0.9980105 1.011089 1.0906829
1.2609689 1.1652052 1.3671709 1.3558284 0.99987733 1.1040697 0.9612116 1.4672549
1.1362147 1.1323801 1.1460726 1.0800731 1.1242274 1.072195 1.0036372 1.1940948
1.2886544 1.2729604 1.0281053 1.3044397 1.032756 0.98791873 1.113844 0.93588084
00000000: 24fa 9c3f 61f0 843f 1582 933f 51f1 7c3f
00000010: 5372 ae3f 9e7d 7f3f 5d6b 813f 7f9b 8b3f
00000020: 6e67 a13f 7225 953f 75ff ae3f c98b ad3f
00000030: f6f7 7f3f 2852 8d3f f711 763f 02cf bb3f
00000040: 7c6f 913f d5f1 903f 82b2 923f d63f 8a3f
00000050: afe6 8f3f b03d 893f 2f77 803f 19d8 983f
00000060: a1f2 a43f 5ef0 a23f f498 833f e1f7 a63f
00000070: 5931 843f 3ee8 7c3f 7192 8e3f e395 6f3f

bn3.bias f4 [32]
0.09260418 0.10182562 -0.049156446 -0.10608034 0.34617135 -0.057071574 -0.10930005 0.112771705
0.52269155 0.44746903 0.3078891 0.51246715 -0.047332626 0.026836842 -0.07674933 0.3831923
0.2508813 -0.022258066 -0.026647335 -0.009579497 -0.11103211 0.069961414 0.08234129 0.5031776
0.49282956 0.32904235 0.03418117 0.4918325 -0.03594992 0.0710444 0.024808517 -0.04943566
00000000: 43a7 bd3d f389 d03d 4558 49bd a640 d9bd
00000010: 5f3d b13e e2c3 69bd b4d8 dfbd daf4 e63d
00000020: 1dcf 053f a91a e53e a4a3 9d3e 0c31 033f
00000030: dbdf 41bd f0d8 db3c c12e 9dbd c831 c43e
00000040: 8473 803e 8c56 b6bc 834b dabc 53f3 1cbc
00000050: ce64 e3bd ee47 8f3d 8da2 a83d 3fd0 003f
00000060: 2854 fc3e 3d78 a83e 8e01 0c3d 78d1 fb3e
00000070: 3940 13bd ba7f 913d 3b3b cb3c 0c7d 4abd

bn3.running_mean f4 [32]
0.767961 -0.8732129 0.59717906 -0.11295528 0.122663766 -0.9853335 -0.50715333 0.093374155
0.29742122 0.07275299 0.17699659 0.5235038 -0.59745324 0.18640219 -1.2244475 0.088183135
-0.0742931 0.60752946 0.012922479 -0.94874734 -0.66062003 -0.93654907 -0.8932485 0.22885731
0.26508346 -0.2144557 -1.1089828 0.45119187 -0.40087754 -1.121674 0.4682548 -0.49207938
00000000: 1899 443f e18a 5fbf bae0 183f 1955 e7bd
00000010: 2437 fb3d d13e 7cbf cdd4 01bf f33a bf3d
00000020: 9847 983e 85ff 943d 983e 353e 5804 063f
00000030: b2f2 18bf 37e0 3e3e b2ba 9cbf 5c99 b43d
00000040: fb26 98bd 0d87 1b3f ceb8 533c 1be1 72bf
00000050: 651e 29bf aec1 6fbf efab 64bf 9259 6a3e
00000060: 05b9 873e 469a 5bbe 26f3 8dbf 9f02 e73e
00000070: d23f cdbe 0393 8fbf 18bf ef3e d4f1 fbbe

bn3.running_var f4 [32]
2.570124 2.418067 1.8334882 0.8509115 4.259886 1.6981999 0.74226755 1.3945034
2.4077935 2.839837 3.1284869 2.589148 2.1045377 1.5953673 2.1142786 2.2219515
1.5937877 2.1140122 0.95753103 2.150639 0.98079914 2.6144695 3.240265 1.8216293
2.987068 1.654608 2.485586 1.7288978 0.9485232 2.9195905 2.1161902 1.4265546
00000000: e97c 2440 9cc1 1a40 beaf ea3f 56d5 593f
00000010: fc50 8840 9d5e d93f 3f05 3e3f 167f b23f
00000020: 4a19 1a40 e4bf 3540 2139 4840 9ab4 2540
00000030: bfb0 0640 ff34 cc3f 5750 0740 7434 0e40
00000040: 3c01 cc3f fa4b 0740 c120 753f 12a4 0940
00000050: a715 7b3f 7853 2740 8060 4f40 262b e93f
00000060: 1f2c 3f40 32ca d33f d713 1f40 864c dd3f
00000070: 6bd2 723f 92da 3a40 a96f 0740 5799 b63f
