flower_setup/pytorch-triage/pytorchexample/final_model_weights.npz (npz, 970478 bytes, 4 tensors)

arr_0 f4 [64, 3782]
000000 f9 d3 b5 39 d2 29 70 bc 60 23 1a 3c 1f ac ba bb
       0.00034680942 -0.014658408 0.009407848 -0.005696788
000010 9c 25 aa bb fe 3f 5a 3c 28 4f 93 ba d4 5d 49 3c
       -0.0051924717 0.013320921 -0.00112388 0.012290437
000020 96 da e2 bb e2 28 83 3a 7b d6 01 3b a7 ef 36 bc
       -0.00692303 0.0010006691 0.0019811678 -0.011165536
000030 5c 20 83 bc 52 4a 2e bb 28 74 cf ba f7 b4 02 bc
       -0.016006641 -0.0026594591 -0.0015827464 -0.007977716
000040 b2 a7 4c 3c e8 7b 08 bb 67 e5 ea bb 77 16 8a bb
       0.012491154 -0.0020825807 -0.00716846 -0.004214104
000050 2a 97 fb bb a0 3b d8 bb fe b2 6b 3c 7a f1 10 3c
       -0.0076779323 -0.0065989047 0.014385937 0.008846635
000060 e0 31 83 3c e4 e8 86 3c 68 56 25 3c fb f9 d0 bb
       0.016014993 0.016468473 0.010091402 -0.0063774562
000070 00 43 5d 3c 7a 72 cd 38 f2 68 58 3c cc 7d c9 3b
       0.013504744 9.796485e-05 0.013208615 0.0061490294
000080 ac a6 4b 3b e0 e1 bb 3b 62 95 a3 37 9b e2 40 bc
       0.0031074686 0.0057337135 1.9500676e-05 -0.011772777
000090 58 63 35 3c f9 03 90 3a 8c a0 95 bb 39 e5 9b bb
       0.011071049 0.0010987512 -0.004566258 -0.00475755
0000a0 76 fa 39 3c 4b b8 b0 ba fe 98 a7 ba 98 df 5a bc
       0.011351218 -0.0013482658 -0.0012786684 -0.013358973
0000b0 b8 13 6d 3c 1f bd 91 3b 86 d8 28 3c d0 92 37 3c
       0.014470033 0.004447594 0.010305529 0.011204436
0000c0 86 47 84 3c 42 9e 67 3c d5 63 27 bc ae 2e d5 bb
       0.016147386 0.014136853 -0.010216673 -0.006505809
0000d0 94 64 49 bc 12 40 76 3c 86 6a 71 3c 7a 20 71 3c
       -0.012292046 0.015029924 0.01473487 0.014717216
0000e0 b6 41 82 3c 8c 04 5e bb 4d 92 32 3c 4c 95 9c bb
       0.015900474 -0.0033877222 0.010899139 -0.0047785398
0000f0 56 33 e1 ba 3c a5 25 bb b7 aa 83 bb 26 17 a2 bb
       -0.0017181437 -0.002527549 -0.0040181535 -0.004946607
000100 84 d7 c1 3b 42 35 18 bc 8e 62 3d 3c 89 91 56 bc
       0.005915584 -0.009290041 0.011559142 -0.013096222
000110 f4 c9 ed bb 13 51 4f 3c 66 5c 6e bc 8a 7f 8f 3a
       -0.0072567407 0.012653607 -0.014548397 0.0010948044
000120 66 85 c9 3b 8e 04 f2 bb be eb 0a bb 07 ed f5 bb
       0.0061499355 -0.007385797 -0.0021197642 -0.0075050625
000130 dc 11 bd bb 10 e8 04 bc 4e 1e 08 bc 72 26 17 b9
       -0.0057699513 -0.008111969 -0.008308006 -0.00014414804
000140 c4 89 a7 3b 48 40 7d bc 08 ef 0f bb 57 77 48 bc
       0.0051128585 -0.01545722 -0.0021962542 -0.012235484
000150 58 58 20 3c 10 e5 89 bb 81 3b 7b 3c cf 60 bf 3b
       0.009786688 -0.0042082146 0.015334011 0.005840398
000160 b0 39 59 bc 40 30 2e bc 44 b6 61 3c bc d5 fa 3a
       -0.013258383 -0.010631621 0.013776366 0.0019137184
000170 50 c7 5e 3c 90 fa 3a bc d5 08 7f 3b da 69 73 3c
       0.0135973245 -0.011412278 0.0038915176 0.01485678
000180 4f 99 18 3c aa c2 f5 3b f4 da ad 3b 2a 4c 75 3c
       0.009313895 0.0075000124 0.0053056423 0.014971772
000190 38 aa cb 3a 85 96 77 3b bb 4a 56 3b 33 8c 38 bc
       0.00155384 0.0037778926 0.0032698351 -0.011263895
0001a0 a6 a9 6c 3c ac e4 4c 3b 32 f5 f2 b9 c2 c6 36 bc
       0.014444744 0.0031264229 -0.00046340522 -0.011155786
0001b0 b0 0a 95 3a 7e 53 6a bb 11 d8 0a 3c 12 a3 ce ba
       0.0011370983 -0.0035755332 0.008474366 -0.0015765151
0001c0 3a 52 9e 3b 16 e3 5b bc 88 93 51 3c 5a d0 80 bc
       0.0048315795 -0.013420841 0.012791522 -0.01572435
0001d0 d6 1b 74 bc 7b f7 5d 3c 5a da 6c bc f3 54 ab bb
       -0.014899215 0.0135477735 -0.014456356 -0.0052286326
0001e0 ba 51 99 3b bf e7 2c bb f4 2a 1a bc 8b 85 09 3c
       0.004678932 -0.0026383249 -0.009409655 0.0083936555
0001f0 c8 e0 81 bc 48 47 1f 3c 86 19 81 bc 36 f8 4e bc
       -0.015854254 0.009721585 -0.01575924 -0.01263242
000200 54 b8 35 bc c5 b6 1d bc 14 ea bb bb 11 77 3f 3c
       -0.0110913105 -0.009626095 -0.0057346914 0.0116861025
000210 b4 b8 91 ba 46 9e 71 bc aa da 4f bc f4 bc 49 3c
       -0.0011117668 -0.014747208 -0.012686411 0.012313116
000220 ae fe 1b bc 72 72 83 3c 52 3e 12 3c f4 e7 29 bc
       -0.00952117 0.016045783 0.008925991 -0.010370243
000230 50 54 73 3c 2e 12 4e 3c a8 86 a6 bb 0a 64 97 3b
       0.014851645 0.012577577 -0.0050819702 0.00462008
000240 97 cb 16 3c 9c 5e f3 bb a2 ea 48 3c 0e f6 06 3c
       0.009203813 -0.00742705 0.012262972 0.008237375
000250 80 1d 1c bc fe 01 d4 3b 04 51 9b bb b1 62 a1 3b
       -0.009528518 0.006469964 -0.0047398824 0.004925095
000260 ea ac 4f bc 18 b9 e1 bb 58 f3 0a bc e6 1c ac bb
       -0.012675503 -0.00688852 -0.008480869 -0.0052524684
000270 09 20 8b 3c be 7c 06 bc 78 8b 81 3c 29 ed f7 3b
       0.016983049 -0.008208452 0.015813574 0.0075661135
000280 4c 04 5f bc 76 c1 4c 3a 0a a4 1f bc f7 0f 56 bb
       -0.013611864 0.00078108103 -0.0097437 -0.0032663324
000290 da 8e 2f bc 86 02 a2 bb 14 3d 02 3b 68 b9 5e bc
       -0.010715211 -0.0049441485 0.0019872831 -0.013594009
0002a0 e6 fa e9 bb fc 5e ec ba b7 39 5e 3c 04 49 bb 3b
       -0.007140505 -0.0018033679 0.013563565 0.0057154913
0002b0 54 06 dc 3a ab aa 61 3c 70 32 11 3c a3 fb 36 3c
       0.0016786554 0.013773601 0.008862123 0.011168393
0002c0 b8 e0 26 3c 18 c2 38 3c bc ad 41 3c 73 48 9b 3a
       0.010185413 0.011276744 0.011821207 0.0011847153
0002d0 26 8f 75 3c f6 e8 71 3c 68 94 9f ba 93 f0 3b ba
       0.0149877425 0.014765015 -0.0012174966 -0.0007169332
0002e0 22 e3 26 3c 55 10 8b 3c 67 90 2d bc 82 32 aa ba
       0.010185989 0.016975561 -0.01059351 -0.0012985023
0002f0 d2 84 01 bc be be 12 bc c0 d3 4d bb 91 39 3e 3c
       -0.007905202 -0.008956609 -0.003140673 0.011610405
000300 cc 4f 8d 3a ac 41 20 bc 8c cc 23 3c 5a a8 a1 3b
       0.0010781228 -0.009781282 0.009997498 0.004933399
000310 4d 40 ae 3b 63 4a 93 bb 21 7b 72 3c c4 71 b7 3b
       0.005317724 -0.0044949516 0.014799864 0.0055982787
000320 6d de 09 3c 8c fe 9b bb d4 40 06 3c 45 96 1b 3b
       0.008414847 -0.004760569 0.008194167 0.002374069
000330 83 71 07 3c 9c e1 f3 bb 45 b4 97 bb 22 45 65 bc
       0.008266809 -0.007442666 -0.004629644 -0.013993533
000340 af 9b dc 3b a0 23 71 bc 85 7b cb bb b4 1d 92 bb
       0.006732426 -0.014717966 -0.006209793 -0.0044591073
000350 fd 96 22 3c 00 3b a9 bb 88 e2 32 bc 5e d1 d5 3a
       0.009923694 -0.005164504 -0.010918267 0.0016313007
000360 40 8a 31 bc fe 14 52 3c fe e9 be ba e4 c3 fa 3a
       -0.010836184 0.012822388 -0.0014565585 0.0019131866
000370 34 d3 84 3c 20 17 ce 3b 33 3b ba ba 33 57 3c bb
       0.01621399 0.006289378 -0.0014208317 -0.0028738498
000380 5d 6c 0e 3c 48 ad 1b bc 3a fc 3d 3c 6d 98 4c bb
       0.008692828 -0.009501763 0.01159578 -0.0031218783
000390 87 b2 24 3c da 82 e6 ba f3 d6 23 bc 10 d4 68 3c
       0.01005233 -0.0017586604 -0.009999978 0.014210716
0003a0 be b8 a7 3b 0e 61 71 bc d8 df 0b 3c 4a 62 15 bb
       0.0051184585 -0.014732612 0.008537255 -0.002279418
0003b0 48 7f e8 bb ce 8b 2d 3c 11 5f 71 bc 02 9e 69 3c
       -0.007095251 0.010592414 -0.014732138 0.014258863
0003c0 cc 3c 5a 3c 30 dc 1c 3c b9 ab 00 3a b7 0f 2f 3c
       0.013320159 0.009573981 0.0004908401 0.010684899
0003d0 f4 cf 09 3c 7d 9b 2e bc 12 41 4b bc 9b d5 0c 3c
       0.008411396 -0.0106571885 -0.012405651 0.008595849
0003e0 42 0a 46 3c b8 19 00 bb 2e 56 2f 3c ba 64 01 3c
       0.012087407 -0.001954658 0.010701699 0.00789755
0003f0 b4 90 75 ba 16 96 1a 3b 46 64 f6 3b 16 bb 85 bb
       -0.0009367571 0.0023587993 0.0075192777 -0.0040811403

arr_1 f4 [64]
000000 19 1f 6a 3d 2a 80 bc 3b 0a e4 87 3d a4 bb d9 3d
       0.057158563 0.005752583 0.06635292 0.10631493
000010 d7 77 0e 3e 7d b1 25 3e ee ef 07 3e 1c 4d c0 3d
       0.13912903 0.16180988 0.1327512 0.093897074
000020 94 71 a2 3d 19 80 22 3e c4 67 0a 3d e2 0f 71 3e
       0.079318196 0.15869178 0.033790365 0.23541215
000030 06 97 10 3e 76 61 46 3d f4 63 b2 3e b7 3b 4a 3e
       0.14120111 0.04843279 0.34841883 0.19749342
000040 78 2b 20 3e 46 26 17 3d 62 a6 b7 3d c4 9c a2 3d
       0.15641582 0.036901735 0.08967282 0.07940057
000050 26 3a 0b 3e 1c 7f 97 3d 30 0a 0c 3e be 27 19 3e
       0.135964 0.07397291 0.13675761 0.14956567
000060 5a e0 35 3e 16 e4 35 3d 9a 25 16 3d e9 23 e2 3d
       0.17761365 0.044406973 0.036656953 0.110420056
000070 f0 4f f4 3b c4 d8 06 3d f2 32 5e 3d 8c 04 9d bc
       0.0074558184 0.032921568 0.054247804 -0.019167207
000080 1a c5 90 3d a2 a9 0d 3e 10 7c 3d 3d d4 57 ff 3d
       0.07068844 0.13834241 0.046260893 0.12467924
000090 70 d4 4a 3d d2 2f 07 3d e4 f1 be 3d 02 f8 b3 3d
       0.049519002 0.03300459 0.09323481 0.08787538
0000a0 e0 c2 0b 3d e4 9d 55 3e 92 bb 1a 3e 3d bb 1c 3c
       0.034121394 0.20861012 0.15110615 0.009566125
0000b0 96 22 b5 3d c9 9a 1f 3d ce 67 9a 3d 57 ca c5 3d
       0.08844487 0.038965974 0.075393304 0.09657734
0000c0 5c 99 66 3d 5c 3d d2 3d 4d 9b e1 3d 54 65 32 3e
       0.0562986 0.102656096 0.110159494 0.17421466
0000d0 76 f9 e0 3d b0 8e 04 3d 6e 3e e8 3d 0e c4 39 3e
       0.10985081 0.03236264 0.113400325 0.18141195
0000e0 90 6b 9a 3d 34 42 c1 3d ae 58 11 3d b2 1f 4d 3d
       0.07540047 0.09436455 0.035484962 0.050079055
0000f0 de a7 d5 3d fb 12 5b 3d 26 45 23 3d 05 18 41 3e
       0.10432409 0.053484898 0.039860867 0.18856819

arr_2 f4 [4, 64]
000000 14 1a 2d 3e a4 a4 0c 3e c6 0f 28 3e 56 5f b6 3e
       0.1690448 0.1373468 0.16412267 0.3561961
000010 f6 46 db be ea 39 a9 be 14 68 85 bd 34 a7 95 3e
       -0.42827576 -0.33051997 -0.06513992 0.29229128
000020 5c 3b 83 bd e4 0f 00 3f b2 e3 9c 3d 12 b0 9f be
       -0.06407806 0.5002425 0.07660617 -0.31189018
000030 1c 1c 55 3d b8 06 a9 bd 4c c1 06 bf 5e 5a c4 be
       0.05202876 -0.082532346 -0.526387 -0.38350195
000040 fe 04 ee 3e 38 05 46 be 04 48 82 be 8b a6 95 bd
       0.46488184 -0.19337928 -0.2544557 -0.07307156
000050 f6 80 37 3d b2 53 e9 3e 7d 3a cd be 63 5b db be
       0.04480072 0.45571667 -0.40083686 -0.4284316
000060 04 61 4f be e1 88 b3 bd db a0 3f 3f 5a 4e 4d 3e
       -0.20251852 -0.08766342 0.7485482 0.2004942
000070 6c ad 4c 3e 64 36 ea 3e a8 48 83 3e ee 90 e6 bc
       0.1998803 0.45744622 0.2564137 -0.02814528
000080 da c8 50 3e 1e ea 95 3e 1a 41 1e 3f 19 5c 70 be
       0.20389119 0.2928018 0.6181809 -0.23472632
000090 1d f2 af 3e ac d8 cb 3e 72 21 e4 3e 40 34 0f 3e
       0.34364405 0.39813745 0.44556767 0.13984776
0000a0 8a bd 1d 3f ea 83 bf be a4 16 00 3d 0b 48 93 bd
       0.6161734 -0.3740533 0.03127159 -0.071914755
0000b0 80 29 75 3e 6d 80 87 bd c0 82 15 3c a2 7e 68 be
       0.23941612 -0.06616292 0.0091254115 -0.22704557
0000c0 fe b1 33 3e a0 a7 73 be 60 7f 28 be de 27 80 be
       0.17548367 -0.23794413 -0.1645484 -0.25030416
0000d0 f3 7b e0 bd 84 10 aa bd 72 3e 1f be c8 ba 55 be
       -0.109611414 -0.08303931 -0.15551165 -0.20872033
0000e0 64 e3 30 3f 6c f9 04 3f 06 37 35 3e 6a 61 ba 3d
       0.6909697 0.5194309 0.17696771 0.091006115
0000f0 b7 66 36 bd 27 07 46 be a1 22 da 3c 2a ca 05 bf
       -0.04453155 -0.19338666 0.02662784 -0.522616
000100 32 e8 2c be b6 0d b1 3c 58 a1 20 be 32 19 d4 bd
       -0.1688545 0.021612983 -0.15686548 -0.10356368
000110 9e f7 d4 3e 4a ea 90 bd 24 f3 6d be ea 66 14 3e
       0.41595167 -0.07075937 -0.23237282 0.14492384
000120 a6 59 d4 3e ea 16 db 3e 9a b9 95 3d 2e da af be
       0.41474646 0.4279092 0.07310791 -0.34346145
000130 b0 ca 3b be d9 39 85 3e 1a e8 04 be 10 f1 31 3e
       -0.18339038 0.26020697 -0.12979165 0.17377114
000140 2b 6a 91 3e c5 5b 0e 3e 25 74 4c 3e 7e 94 7a 3e
       0.28401312 0.13902195 0.1996618 0.24470708
000150 53 54 10 3f 60 57 c2 3b b6 83 8c 3e 11 c5 9a 3e
       0.5637867 0.005930826 0.27444237 0.30228475
000160 ce 7a 24 bd b9 b3 4a 3e 8d 65 56 be 05 f6 52 be
       -0.04015618 0.19795121 -0.20937176 -0.20601662
000170 e2 6d 3c be d3 00 5f be cf 4f ff 3c 44 d6 af bd
       -0.18401292 -0.21777658 0.031165985 -0.0858579
000180 a4 74 16 be 44 92 b8 3e d5 2f 8e be 9a 50 af 3b
       -0.14692932 0.36049092 -0.27770868 0.0053501846
000190 7f fe 88 bd 6a 88 24 be 9e 2b 88 be 80 83 92 be
       -0.06689166 -0.16067663 -0.26595777 -0.28615952
0001a0 c0 57 97 be 50 fd 3a be 34 6e a9 3e 72 ba 04 be
       -0.29559135 -0.18260694 0.3309189 -0.12961748
0001b0 79 f5 26 3e 74 29 4b 3e 2f 70 32 bd 64 e6 7b 3e
       0.16304578 0.19840032 -0.043564018 0.24599606
0001c0 8b d9 87 be b3 75 04 3d ea 2a 74 be 72 52 6c be
       -0.2653316 0.03233881 -0.23844495 -0.23078325
0001d0 2c f1 e9 bd 42 ab 8d 3a f5 c2 53 bc 20 c3 99 be
       -0.11422953 0.0010808485 -0.012924899 -0.3003168
0001e0 9e 80 12 bd 94 54 c3 3d 76 ab 06 be 48 81 06 be
       -0.03576719 0.09537616 -0.13151345 -0.13135254
0001f0 ad 89 c1 3e f6 8d 2b 3d 8a 54 3f 3e d4 50 b5 3e
       0.3780035 0.04188343 0.18684593 0.3541323
000200 ac c4 b6 bd 78 98 83 bc 3c 53 24 3e 92 55 a6 be
       -0.08924231 -0.016063914 0.16047376 -0.3248716
000210 3a fc 21 3e 4c 6c be 3e b3 7e 58 3e 4a 5e 90 bd
       0.15818873 0.37192 0.21142082 -0.07049234
000220 42 a0 a7 bd b9 56 ab be fc d6 e7 bd 55 6b 84 3e
       -0.081848636 -0.33464602 -0.11320302 0.25863138
000230 34 4e 2f be a8 48 ca ba 6d 68 bf 3e d9 52 91 3d
       -0.17119676 -0.001543303 0.37384358 0.0709588
000240 6c c2 ed be 8e 70 09 be 08 87 0b bd ed 91 1f 3e
       -0.46437395 -0.13421842 -0.034064323 0.1558301
000250 08 eb ce be 72 5e 85 be 4a 24 91 3e 94 d9 a2 3e
       -0.4041369 -0.2604862 0.28348 0.31806624
000260 9c 35 1e 3d 54 c5 d3 bd af 3e 95 be 9c 9d d2 bd
       0.038625345 -0.10340372 -0.29149386 -0.10283968
000270 44 73 13 be f4 85 24 be 8e a2 06 be 6a bb c9 bd
       -0.14399439 -0.16066724 -0.13147947 -0.098501995
000280 36 46 a2 3d a2 ed cf be 44 07 7f bd b7 b1 0b bd
       0.07923548 -0.40610987 -0.06226279 -0.03410503
000290 51 88 85 be e8 99 30 be 50 7e 30 be b4 93 84 3e
       -0.26080564 -0.1724621 -0.17235684 0.2589394
0002a0 73 c9 14 be 60 f3 d5 3e 92 39 04 3e f9 ad 1d bd
       -0.14529972 0.41787243 0.12912586 -0.03849599
0002b0 8a 95 9b be c6 97 7e bc 60 8d 89 bd 0f 81 56 3e
       -0.30387527 -0.015539115 -0.06716418 0.2094767
0002c0 30 63 dd 3d 6c c1 23 3e a6 18 36 3e e1 4d 00 3e
       0.10809934 0.15991753 0.1778284 0.12529708
0002d0 74 a1 65 3e 7a dc 0a be ac 05 74 3e 62 ac a0 3e
       0.2242487 -0.13560668 0.23830289 0.31381518
0002e0 ec 04 be be ce ed 9b be 76 97 98 3d 8e ca 1b 3e
       -0.3711313 -0.30454868 0.07450764 0.15213987
0002f0 50 8d 93 be 04 d3 ea 3d e4 87 0e 3e e2 84 90 3e
       -0.2881875 0.11466029 0.13919026 0.28226382
000300 a4 9e 12 3d a0 2e f0 3c e4 81 1c be 5a 8c 7c 3b
       0.035795823 0.029319108 -0.15283924 0.0038535804
000310 b2 22 7c be 44 a5 fc 38 44 67 21 3e 5e ae 8c be
       -0.2462261 0.000120470795 0.15762049 -0.27476782
000320 32 d9 04 be 02 18 f4 be eb c5 9b bd 65 07 7f 3e
       -0.12973478 -0.47674567 -0.07606109 0.24905165
000330 1a 7b 89 3e 24 6f 84 3b b0 ae d5 3e 7b 54 3f 3e
       0.26851732 0.0040415693 0.41734838 0.1868457
000340 ec 72 02 be 56 d7 fa bd 94 0b b9 bc 29 29 1e be
       -0.12739152 -0.12248103 -0.022588529 -0.15445389
000350 b2 37 3d be 6e e7 80 be 80 43 04 be 42 21 fe bd
       -0.18478277 -0.25176567 -0.12916374 -0.12408687
000360 cb fe 95 3e 68 04 22 bd 96 4d 85 be f1 6c 3d 3e
       0.29295954 -0.039554983 -0.26035756 0.18498589
000370 fb 74 de bd 34 73 a7 bc 9a d2 6e be d5 c3 1c 3c
       -0.10862156 -0.020440675 -0.23322526 0.009568174
000380 bf 43 82 be 36 a9 c2 bd e2 68 18 be 6c ec ec 3d
       -0.2544231 -0.09504931 -0.1488376 0.115685314
000390 19 c7 7e be 06 ef 94 bd 40 20 97 3d c4 72 33 be
       -0.24880637 -0.072721526 0.07379198 -0.17524248
0003a0 84 fb 51 be b0 5b b2 3d bc 83 b7 be c1 27 f9 bd
       -0.20506102 0.08708894 -0.35842693 -0.121657856
0003b0 ec 02 56 be 0c 19 a5 bd 96 68 68 3e 0d b7 7d be
       -0.20899552 -0.08061418 0.22696146 -0.2477686
0003c0 12 41 9d bd 13 40 ea 3c 3e dc 9a 3d 71 d1 2b 3e
       -0.07678427 0.028595006 0.07561539 0.16779114
0003d0 48 ec 24 3e ae 13 0c 3d c6 ad ac 3d 2f d7 38 3e
       0.16105759 0.034198456 0.08431582 0.18050836
0003e0 fe dc 83 be 5b 6e 39 be 1b 79 08 be 57 f6 3b 3b
       -0.2575454 -0.18108504 -0.13327448 0.0028680766
0003f0 f1 c0 2a bd b5 a3 d1 bd d8 09 82 bd 7a 42 04 be
       -0.04168791 -0.10236303 -0.06349534 -0.12915984

arr_3 f4 [4]
000000 4e 95 a4 bd 81 f1 61 3e ed a5 24 3e d0 8c 38 bd
       -0.0803629 0.22064783 0.1607892 -0.045056164
